…
DEBUG - 05/05/24 14:06:27 - 0:00:01 - Fitting scaler
DEBUG - 05/05/24 14:06:27 - 0:00:01 - Loading model from ./dumped/pretrained_graph_encoder/original_CMPN_0623_1350_14000th_epoch.pkl
DEBUG - 05/05/24 14:06:27 - 0:00:01 - MoleculeModel(
                                        (encoder): CMPN(
                                          (encoder): CMPNEncoder(
                                            (dropout_layer): Dropout(p=0.0, inplace=False)
                                            (act_func): ReLU()
                                            (W_i_atom): PromptGeneratorOutput(
                                              (self_out): Linear(in_features=133, out_features=300, bias=False)
                                              (prompt_generator): Prompt_generator(
                                                (linear): Linear(in_features=133, out_features=300, bias=True)
                                                (attention_layer_1): AttentionLayer(
                                                  (w_q): Linear(in_features=133, out_features=32, bias=True)
                                                  (w_k): Linear(in_features=133, out_features=32, bias=True)
                                                  (w_v): Linear(in_features=133, out_features=32, bias=True)
                                                  (dense): Linear(in_features=32, out_features=133, bias=True)
                                                  (LayerNorm): LayerNorm((133,), eps=1e-06, elementwise_affine=True)
                                                  (dropout): Dropout(p=0.1, inplace=False)
                                                )
                                                (attention_layer_2): AttentionLayer(
                                                  (w_q): Linear(in_features=133, out_features=32, bias=True)
                                                  (w_k): Linear(in_features=133, out_features=32, bias=True)
                                                  (w_v): Linear(in_features=133, out_features=32, bias=True)
                                                  (dense): Linear(in_features=32, out_features=133, bias=True)
                                                  (LayerNorm): LayerNorm((133,), eps=1e-06, elementwise_affine=True)
                                                  (dropout): Dropout(p=0.1, inplace=False)
                                                )
                                                (norm): LayerNorm((300,), eps=1e-05, elementwise_affine=True)
                                              )
                                            )
                                            (W_i_bond): Linear(in_features=147, out_features=300, bias=False)
                                            (W_h_atom): Linear(in_features=447, out_features=300, bias=False)
                                            (W_h_0): Linear(in_features=300, out_features=300, bias=False)
                                            (W_h_1): Linear(in_features=300, out_features=300, bias=False)
                                            (W_o): Linear(in_features=600, out_features=300, bias=True)
                                            (gru): BatchGRU(
                                              (gru): GRU(300, 300, batch_first=True, bidirectional=True)
                                            )
                                            (lr): Linear(in_features=900, out_features=300, bias=False)
                                            (W_i_atom_new): Linear(in_features=266, out_features=300, bias=False)
                                          )
                                        )
                                        (ffn): Sequential(
                                          (0): Dropout(p=0.0, inplace=False)
                                          (1): Linear(in_features=300, out_features=300, bias=True)
                                          (2): ReLU()
                                          (3): Dropout(p=0.0, inplace=False)
                                          (4): Linear(in_features=300, out_features=1, bias=True)
                                        )
                                      )
DEBUG - 05/05/24 14:06:27 - 0:00:01 - Number of parameters = 2,178,806
DEBUG - 05/05/24 14:06:27 - 0:00:01 - Moving model to cuda
INFO - 05/05/24 14:06:28 - 0:00:02 - Epoch 0
INFO - 05/05/24 14:06:35 - 0:00:09 - Validation mae = 127.937848
INFO - 05/05/24 14:06:36 - 0:00:10 - test mae = 126.932648
…
